CNNModel.pth (torch, 251155 bytes, 10 tensors)

conv1.weight f4 [6, 3, 5, 5]
0	0xbe1adf03	-0.15124135
1	0xbe82236b	-0.25417647
2	0xbe244865	-0.16043241
3	0xbdc95d11	-0.09832204
4	0xbe11bd6a	-0.14232412
5	0xbe07852f	-0.132344
6	0xbcbb9b02	-0.022901062
7	0x3cba860c	0.022768997
8	0x3db9ae9d	0.09066508
9	0xbd7471d7	-0.05967888
10	0xbd58f683	-0.052969467
11	0xbd8d7b10	-0.06908238
12	0xbd967651	-0.07346786
13	0xbde01f2c	-0.109434456
14	0xbd9e3a2d	-0.0772594
15	0x3d71c9b4	0.05903025
16	0xbca578a3	-0.020199126
17	0x3c8848f1	0.016636344
18	0xbd8046e7	-0.062635235
19	0x3dbef388	0.09323794
20	0xbd977a8b	-0.0739642
21	0x3df7b188	0.12094408
22	0x3c32d596	0.010915181
23	0x3d238de8	0.039930254
24	0x3c401d65	0.011725758
25	0x3e0ff5c3	0.14058594
26	0xbcf75f79	-0.030196892
27	0xbd174eb2	-0.036940284
28	0x3ddf9dbe	0.10918759
29	0x3cb03847	0.02151121
30	0x3cab908b	0.020942947
31	0x3ea28522	0.31742197
32	0x3e3f51e6	0.18683586
33	0x3e8ea8d4	0.2786318
34	0x3dbcce25	0.092190064
35	0x3c62c93f	0.013841926
36	0x3ea678e4	0.32514107
37	0x3d61b723	0.055106293
38	0x3e87b13e	0.26502413
39	0x3e8ddf09	0.27709225
40	0x3dcc463c	0.09974334
41	0x3e51cd3d	0.20488448
42	0x3e130c98	0.14360273
43	0x3de6936f	0.112585895
44	0x3e908c07	0.28231832
45	0x3dcdf2dd	0.10056088
46	0x3e1c01f7	0.15235125
47	0xbc4a0671	-0.012330637
48	0x3e5ebcd2	0.21751717
49	0x3e29ca7a	0.16581145
50	0xbe4325f6	-0.1905745
51	0xbe4a3ac6	-0.19748983
52	0xbe83ca1d	-0.25740138
53	0xbcdda7a4	-0.027057476
54	0xbe61f5b8	-0.2206639
55	0xbdaf84a2	-0.085702196
56	0x3dc3d57d	0.09562204
57	0xbd131b27	-0.035914566
58	0xbc9c6c98	-0.01909475
59	0x3d31c79a	0.043403246
60	0xbe42356d	-0.18965693
61	0xbd917ce9	-0.07103903
62	0xbd2e65e0	-0.042577624
63	0xbe04573b	-0.12923901
64	0x3c3268fb	0.010889287
65	0xbe480e25	-0.19536646
66	0x3d57b1b9	0.052659724
67	0xbe366492	-0.17811802
68	0xbe2831d1	-0.16425253
69	0x3d1b2370	0.037875593
70	0xbd56273b	-0.052283507
71	0xbdff78fc	-0.12474248
72	0xbe33f511	-0.17573954
73	0xbe24ef04	-0.16106802
74	0xbd2c4b8c	-0.042064235
75	0x3d2b6210	0.041841567
76	0xbcc1329b	-0.0235837
77	0xbcec5616	-0.028849643
78	0x3e1bc6f1	0.15212609
79	0xbe31b14b	-0.17352788
80	0xbd880ddc	-0.066432685
81	0xbcc82413	-0.024431264
82	0x3df51c72	0.11968316
83	0x3b41bb0a	0.0029560947
84	0xbe1acc8a	-0.15117088
85	0xbe3ae6e0	-0.18252134
86	0xbe1203ea	-0.14259306
87	0x3cf7f83f	0.03026974
88	0x3c5b9dfb	0.013404365
89	0xbda38825	-0.07984952
90	0xbd87dc07	-0.06633764
91	0xbe61708a	-0.22015586
92	0xbd64a65c	-0.055822715
93	0xbd54d3a9	-0.051959667
94	0xbc4c807a	-0.012481803
95	0x3d530dd5	0.051526863
96	0x3d730cb9	0.059338305
97	0xbe85436d	-0.26028004
98	0xbe4313dc	-0.19050545
99	0xbdc2cde0	-0.09511924
100	0x3dfeff58	0.12451047
101	0xbd305e52	-0.0430587
102	0x3c98b374	0.018640257
103	0x3e9d2e8a	0.3069957
104	0xbe11b441	-0.14228918
105	0x3bbee42b	0.0058255396
106	0xbcb65029	-0.02225502
107	0x3e1bab2f	0.1520202
108	0x3e873eb0	0.26415014
109	0xbcb75270	-0.022378176
110	0xbe3e51d5	-0.18585904
111	0xbd9e9386	-0.077429816
112	0x3e778b90	0.24174333
113	0x3e6b67a1	0.2298875
114	0x3df69587	0.12040239
115	0xbc5c8d0d	-0.0134613635
116	0xbdc4269e	-0.09577678
117	0xbce49d07	-0.027906908
118	0x3e12401d	0.1428227
119	0x3d72ece3	0.059307944
120	0x3e09b7d9	0.13449039
121	0x3e26e8eb	0.16299789
122	0xbe079474	-0.13240224
123	0x3c077c89	0.008269438
124	0x3c8c9df9	0.017165171
125	0xbe22d8d2	-0.15903023
126	0xbc6c2256	-0.014412483
127	0xbddb1690	-0.10697663
128	0x3e0b469d	0.13601156
129	0xbe819044	-0.25305378
130	0xbd86b054	-0.06576601
131	0xbe28242c	-0.16420048
132	0x3e171fb8	0.14758193
133	0xb9b9dd3a	-0.00035450776
134	0xbdade6fc	-0.084913224
135	0xbe69d855	-0.2283643
136	0xbdb9420c	-0.090458006
137	0x3e288887	0.16458331
138	0x3d2fc648	0.042913705
139	0xbe28911a	-0.16461602
140	0x3e00dd2c	0.1258437
141	0xbe4bba47	-0.19895278
142	0xbd526beb	-0.05137245
143	0xbd7fb95c	-0.06243263
144	0xbe0d25e4	-0.13783985
145	0x3e1c888a	0.1528646
146	0x3ddb9ba4	0.107230455
147	0xbe090b00	-0.13383102
148	0xbd149080	-0.03627062
149	0xbdbbb84f	-0.091660134
150	0x3d243527	0.040089753
151	0xbe021c49	-0.12706102
152	0x39c8de04	0.00038312387
153	0xbdcacf17	-0.099027805
154	0x3cc56cbb	0.024099698
155	0xbe27e352	-0.1639531
156	0xbe1bc0af	-0.15210222
157	0xbe0770b5	-0.13226588
158	0xbd04b065	-0.032394785
159	0x3d5e1612	0.054220267
160	0xbe385530	-0.18001246
161	0xbe5863b6	-0.21131787
162	0xbd4d2b08	-0.050089866
163	0xbdc7234b	-0.097235285
164	0xbdfc191b	-0.12309476
165	0x3c00d03a	0.007862145
166	0xbd7deef8	-0.061995476
167	0xbe112ba7	-0.14176808
168	0xbd8bf0b1	-0.068330176
169	0x3da7679a	0.08174057
170	0xbe9a2390	-0.30105257
171	0xbe641c7c	-0.22276491
172	0xbe38c84b	-0.18045156
173	0xbe46ec69	-0.19426121
174	0xbdf3010f	-0.11865436
175	0xbd0ea218	-0.034822553
176	0xbd4d9701	-0.050192837
177	0x3d8420f3	0.06451597
178	0x3de155a8	0.11002666
179	0x3df48d98	0.11941069
180	0xbce5cf15	-0.028052846
181	0x3d9398b7	0.072068624
182	0xbdd319b5	-0.103076376
183	0xbda67a1c	-0.08128759
184	0x3d7f089b	0.062264066
185	0xbcba617e	-0.022751566
186	0xbdb58d12	-0.08864798
187	0xbc324766	-0.0108812805
188	0xbdad2790	-0.084548116
189	0xbd98dfa7	-0.07464533
190	0x3da3b548	0.07993561
191	0xbd91e03e	-0.07122849
192	0x3da81b85	0.08208374
193	0xbcb017d3	-0.021495735
194	0x3e07f1e7	0.13275872
195	0x3c31bd74	0.010848392
196	0xbdd32c9c	-0.10311243
197	0xbdb73e8c	-0.08947477
198	0xbdaf4b35	-0.085592665
199	0x3d1e2383	0.038608085
200	0x3e3a119b	0.18170778
201	0x3e16014f	0.14648937
202	0x3e5499ba	0.20761767
203	0x3dc3d3ed	0.09561906
204	0x3e510061	0.20410301
205	0x3d4e58e4	0.05037774
206	0x3e16c49e	0.14723441
207	0x3e2682bd	0.1626081
208	0x3e643e38	0.2228936
209	0xbb570ac2	-0.0032812809
210	0x3e4e477f	0.20144461
211	0x3e4f3f18	0.20238912
212	0xbc9e4884	-0.019321688
213	0x3c5b76a6	0.013394987
214	0x3cdda36b	0.027055463
215	0x3e5fd4df	0.21858548
216	0x3d09b46c	0.03361933
217	0x3dced954	0.10100046
218	0x3e34f305	0.1767083
219	0x3e88b84c	0.26703107
220	0x3d74d774	0.059775785
221	0x3cb62ab8	0.022237167
222	0x3e194ea3	0.14971404
223	0x3d932cf9	0.07186312
224	0x3d6ca102	0.057770737
225	0xbda43be9	-0.080192395
226	0xbb9b9468	-0.004747916
227	0xbc6647d7	-0.014055214
228	0x3d43ec42	0.047832735
229	0x3d9f8c5f	0.077904455
230	0xbd62ffb5	-0.055419642
231	0xbe853d77	-0.26023456
232	0xbd69531a	-0.056964017
233	0x3e30d5e7	0.17269097
234	0x3dc30a91	0.095235
235	0xbdcf51f0	-0.1012305
236	0xbe65a266	-0.22425231
237	0x3dc4cce0	0.09609389
238	0x3e99c441	0.30032542
239	0x3e17fcec	0.14842576
240	0xbe1ed647	-0.15511428
241	0xbdefa736	-0.11701815
242	0x3be312e7	0.0069297436
243	0x3e8a21dd	0.2697896
244	0x3dc2e51d	0.09516356
245	0xbda235f9	-0.07920451
246	0x3d975caa	0.07390721
247	0x3dcbe403	0.09955599
248	0x3da7df8b	0.08196934
249	0x3db2d067	0.08731156
250	0x3d84a1f6	0.06476204
251	0xbe3e6be9	-0.18595852
252	0xbe1fbf94	-0.15600425
253	0x3dccefa5	0.10006646
254	0x3d528b4e	0.051402383
255	0xbe85a3a3	-0.26101407

conv1.bias f4 [6]
0	0xbc0d0413	-0.008606928
1	0x3dc0e28b	0.0941821
2	0xbe7247eb	-0.23660247
3	0xbe3c73d0	-0.18403554
4	0xbed3130a	-0.41225463
5	0xbee9ced3	-0.45665607

conv2.weight f4 [16, 6, 5, 5]
0	0xbd16b81f	-0.036796685
1	0xbcb23f10	-0.021758586
2	0xbb02b527	-0.00199444
3	0xbda3d2f6	-0.07999222
4	0x3dd3210a	0.10309036
5	0xbd0c510b	-0.034256976
6	0xbe8a4332	-0.2700439
7	0xbd80ef4f	-0.062956445
8	0xbdbb78d2	-0.09153904
9	0x3d3ee5c0	0.046605825
10	0xbdc200f7	-0.0947284
11	0xbe7c649f	-0.24647759
12	0xbd2359e4	-0.03988065
13	0x3dc340b2	0.09533824
14	0x3d1290d7	0.03578266
15	0xbe795322	-0.24348119
16	0xbd96d0c5	-0.073640384
17	0xbd42153b	-0.04738353
18	0xbdfafa1f	-0.12254738
19	0x3b7e6782	0.003881902
20	0xbdc9e3dc	-0.09857914
21	0xbdf33601	-0.11875535
22	0xbdf13483	-0.11777594
23	0xbdf96935	-0.1217827
24	0x3d681794	0.05666311
25	0x3d36ebbc	0.044658408
26	0xbd659b8d	-0.056056548
27	0x3ded7fac	0.11596617
28	0x3e4a4b94	0.19755393
29	0x3e0f0382	0.13966182
30	0x3e27b1a6	0.16376361
31	0xbcb9c508	-0.02267696
32	0x3da7a4e0	0.08185744
33	0x3daaac67	0.083336644
34	0x3d65afc2	0.05607582
35	0x3cafc267	0.021455003
36	0x3dfca954	0.12336984
37	0x37399c50	1.1063254e-05
38	0x3e0f544f	0.13997005
39	0x3dfaf5f6	0.122539446
40	0x3e0e6955	0.13907368
41	0x3e2ab57a	0.1667079
42	0x3d79d32d	0.06099241
43	0xbd94368f	-0.07236969
44	0x3ddcfc29	0.10790283
45	0x3e25e419	0.16200294
46	0xbda4b97d	-0.080431916
47	0x3cf69d7d	0.030104393
48	0x3d173fbb	0.036926012
49	0x3dc01382	0.09378721
50	0xbdbb604f	-0.09149229
51	0xbe2b38d7	-0.16720901
52	0xbdea93d6	-0.11453979
53	0xbe8c2410	-0.27371264
54	0xbe2be908	-0.16788113
55	0x3db33586	0.08750443
56	0xbbb05575	-0.005381281
57	0xbdf69b6e	-0.120413646
58	0xbdcabdb6	-0.09899466
59	0xbe806834	-0.250795
60	0x3daa82e5	0.083257474
61	0xbcdcd487	-0.02695681
62	0xbdcb8f3b	-0.099394284
63	0xbdfb146c	-0.122597545
64	0xbdd8331e	-0.10556625
65	0xbdc4bfa0	-0.09606862
66	0xbd60235d	-0.054721225
67	0xbe0b3d25	-0.13597544
68	0x3cf9502f	0.030433742
69	0x3c617e0a	0.01376296
70	0xbe441375	-0.19148047
71	0xbd21e9f4	-0.039529756
72	0xbe7f6c36	-0.24943623
73	0xbeb5faed	-0.35543004
74	0xbde0b68c	-0.10972318
75	0x3ea268a5	0.31720462
76	0xbe3f5876	-0.18686089
77	0x3e4468b4	0.19180566
78	0x3d9096b2	0.07059993
79	0x3e1b11dd	0.15143533
80	0x3e1e8798	0.15481412
81	0xbdfbd131	-0.122957595
82	0xbcea47c7	-0.02859868
83	0x3e248afd	0.16068645
84	0x3d4a9b42	0.04946447
85	0x3c8ad279	0.016946064
86	0xbc8168f5	-0.015797118
87	0xbd224bb0	-0.039622962
88	0x3e155c9d	0.1458611
89	0xbcbd3451	-0.023096235
90	0x3dd789f0	0.10524356
91	0xbcd4bfaa	-0.025970299
92	0xbdcdd5aa	-0.10050519
93	0xbe0de16b	-0.13855521
94	0xbdfcc59a	-0.12342377
95	0x3c84796b	0.016171178
96	0xbe24fcb5	-0.16112025
97	0x3cf350c2	0.029701594
98	0xbe42ab4d	-0.19010659
99	0xbde95a89	-0.11394221
100	0xbe2284c8	-0.15870965
101	0x3de7a5ed	0.11310945
102	0x3e2b5077	0.16729914
103	0x3d6b933e	0.057513468
104	0xbcb2351c	-0.02175384
105	0x3e216a95	0.15763314
106	0x3d0e484c	0.034736916
107	0xbd78411c	-0.06060897
108	0xbddcfd2f	-0.107904784
109	0xbdeb5213	-0.11490264
110	0x3e80d331	0.25161126
111	0x3cd148d5	0.025547424
112	0xbe09fbd1	-0.13474967
113	0xbe1a736b	-0.15083091
114	0x3dc4a19b	0.09601136
115	0xbe2b1fb2	-0.1671131
116	0xbcdcede9	-0.026968913
117	0x3cf9ba1b	0.03048425
118	0x3c8743d2	0.016511831
119	0xbdfee2f5	-0.12445632
120	0x3e4025c3	0.18764405
121	0x3b945f2b	0.0045279465
122	0xbdbeea9f	-0.09322094
123	0xbe7994f8	-0.24373233
124	0x3c51ed74	0.012812961
125	0xbd9b7eee	-0.07592569
126	0xbe6d9043	-0.23199563
127	0xbd8dd43c	-0.06925246
128	0xbb931789	-0.0044888896
129	0xbdc1431b	-0.094366275
130	0x3e0f6b72	0.14005831
131	0x3a898920	0.0010493137
132	0xbcd6056d	-0.026125634
133	0x3c046a4e	0.008081986
134	0xbe34e6ca	-0.17666164
135	0x3e6547eb	0.22390716
136	0x3e3dbe3f	0.18529604
137	0xbe041621	-0.12899067
138	0xbe3fc46b	-0.18727271
139	0xbd0b0e19	-0.03394899
140	0x3e16bb68	0.14719927
141	0xbd304744	-0.043036714
142	0x3de8c1b7	0.11365073
143	0x3c8b45c9	0.01700105
144	0x3c61af40	0.013774693
145	0xbcc52eb8	-0.024070129
146	0x3d57dcbf	0.052700754
147	0xbe429518	-0.19002187
148	0xbe8f3577	-0.27970478
149	0xbd0e3205	-0.03471567
150	0x3e5385c1	0.20656492
151	0x3de4fdc3	0.11181214
152	0xbd38ed78	-0.045148343
153	0x3e45a6db	0.19301932
154	0x3c1211a4	0.008915339
155	0x3ea092a1	0.3136187
156	0xbc43c0f5	-0.01194786
157	0xbe715558	-0.23567712
158	0xbe1b1818	-0.1514591
159	0xbea061ff	-0.31324765
160	0x3eb94d4c	0.36191785
161	0xbe55ba79	-0.20871915
162	0xbea309a9	-0.31843308
163	0xbe94a8af	-0.29034945
164	0xbe9196d3	-0.28435382
165	0x3e9e56e6	0.30925673
166	0xbe0ab8ea	-0.13547102
167	0xbd62194b	-0.055199903
168	0xbe612bfd	-0.21989436
169	0xbe63436c	-0.22193688
170	0x3e2d5754	0.16927844
171	0x3c9cde47	0.019148959
172	0xbd3c3c0b	-0.0459557
173	0xbdb6db1e	-0.08928512
174	0x3c96b4c0	0.018396735
175	0x3d32fd59	0.043698642
176	0xbe16564a	-0.14681354
177	0xbe3698c4	-0.17831713
178	0x3df62545	0.12018827
179	0x3e0b9960	0.13632727
180	0x3e13adfc	0.14421839
181	0xbd8556df	-0.0651071
182	0xbdb21b05	-0.0869656
183	0xbe0fdbc8	-0.14048684
184	0x3d3b84d6	0.04578098
185	0x3e40fc97	0.18846355
186	0xbd84edc0	-0.0649066
187	0xbc47c462	-0.012192817
188	0x3d4fe3dd	0.050754417
189	0xbe0862f7	-0.13319002
190	0x3e0f54c7	0.13997184
191	0xbc38c5af	-0.0112776
192	0x3a9b8d10	0.0011867601
193	0x3db6dcc6	0.08928828
194	0x3e03d002	0.12872317
195	0xbd24ffe9	-0.040283117
196	0x3d9d0405	0.07666782
197	0x3d335040	0.043777704
198	0xbd4d2d05	-0.050091762
199	0x3d1bb7a1	0.03801692
200	0xbea3ae7a	-0.31969053
201	0xbe696ff4	-0.22796613
202	0x3d5ac6fa	0.053412415
203	0x3e19cbaa	0.15019098
204	0x3df0a4c1	0.11750174
205	0xbe381d6e	-0.17979977
206	0xbdf7fe7c	-0.12109086
207	0x3d133725	0.03594126
208	0x3e56a00d	0.20959492
209	0x3e65084c	0.22366446
210	0xbe891e2f	-0.2678084
211	0xbd912ca8	-0.07088596
212	0x3e2eb66c	0.17061776
213	0x3e71766a	0.23580328
214	0x3e86dddb	0.26341137
215	0xbe97268e	-0.29521602
216	0xbe824061	-0.25439742
217	0xbd84090e	-0.064470395
218	0x3e0c88fa	0.13724127
219	0x3e70e859	0.23526134
220	0xbeaa2b06	-0.3323595
221	0xbd75a03e	-0.059967272
222	0x3d864e2e	0.0655788
223	0x3d1cb9f7	0.038263287
224	0x3e09a630	0.13442302
225	0x3eaf7ac4	0.3427335
226	0xbda0cd10	-0.078516126
227	0xbc8b5b3c	-0.017011277
228	0x3e756c4f	0.23967098
229	0xbd9612e2	-0.0732782
230	0x3ea019f7	0.3126981
231	0xbee8fcc3	-0.45505342
232	0xbe0c547f	-0.13704108
233	0x3d080f0e	0.033217482
234	0xbd9c9d74	-0.07647219
235	0x3e9c721c	0.3055581
236	0xbea9a743	-0.33135423
237	0x3da15065	0.07876662
238	0x3db92ee1	0.090421446
239	0xbd16c9f7	-0.036813702
240	0x3c910116	0.017700713
241	0xbe90ff16	-0.28319615
242	0xbde7c69b	-0.11317178
243	0x3dcbe1e1	0.09955192
244	0x3c3e5388	0.011616595
245	0x39872fbd	0.00025784774
246	0xbdf6e76f	-0.12055861
247	0xbe6c581c	-0.23080486
248	0xbd36ef72	-0.044661947
249	0xbe05eeab	-0.13079326
250	0xbea12909	-0.3147662
251	0xb77bd642	-1.5010652e-05
252	0xbc23aa2f	-0.009989305
253	0xbd245391	-0.040118758
254	0xbdb1337f	-0.086524
255	0x3e18eea7	0.14934789

conv2.bias f4 [16]
0	0x3dd16c16	0.10225694
1	0xbeabe457	-0.33572647
2	0x3d809b6a	0.06279643
3	0x3ef50018	0.47851634
4	0xbdfd38c8	-0.12364346
5	0xbc10d3c1	-0.008839549
6	0xbed8d904	-0.4235307
7	0x3c8546a0	0.016269028
8	0xbe0456ba	-0.12923709
9	0xbe469545	-0.1939288
10	0x3ddcabe4	0.10774973
11	0x3e7909e4	0.24320179
12	0x3eafa659	0.343066
13	0x3d7acf3e	0.061232798
14	0x3ef9e6b8	0.48808837
15	0x3e5afa76	0.21384606

fc1.weight f4 [120, 400]
0	0x3d1de57f	0.038548943
1	0x3d03042e	0.031986408
2	0x3b58ce64	0.0033082003
3	0xbd175731	-0.036948387
4	0xbdb451dd	-0.08804677
5	0xbd9deb21	-0.07710863
6	0x3dfb1907	0.12260633
7	0x3d9caad8	0.07649773
8	0x3a70fdd5	0.00091930974
9	0x3da9834f	0.08276998
10	0x3d283f51	0.04107601
11	0x3d66815e	0.056275718
12	0x3d62150b	0.05519585
13	0xbe4647e2	-0.19363359
14	0xbdb1ab70	-0.08675277
15	0xbe1d45c3	-0.15358643
16	0xbe331c86	-0.1749135
17	0x3c94999f	0.018139658
18	0x3c190625	0.009339844
19	0x3d15ef3e	0.036605112
20	0x3d87c6a0	0.066296816
21	0x3d81704e	0.063202485
22	0x3c498eb3	0.012302089
23	0xbd6efbb1	-0.0583455
24	0x3d319f3f	0.04336476
25	0xbe64f351	-0.22358443
26	0x3d8d504c	0.06900081
27	0x3df119e4	0.11772516
28	0xbe4cdc27	-0.20005856
29	0x3d174f47	0.03694084
30	0xbd067184	-0.0328231
31	0xbe6261d3	-0.2210763
32	0x3a8b00da	0.0010605112
33	0xbda687d6	-0.081313774
34	0xbb2e658c	-0.002661082
35	0x3db494ab	0.08817419
36	0xbe93bc48	-0.28854585
37	0xbda29caf	-0.07940041
38	0xbe7c0b41	-0.24613668
39	0xbd304b0f	-0.04304033
40	0x3c83752a	0.01604708
41	0xbc3c7833	-0.011503267
42	0xbdca9348	-0.09891373
43	0xbe1309c2	-0.14359191
44	0xbd7cf330	-0.06175536
45	0xbdc583fa	-0.09644313
46	0xbd121ca8	-0.03567186
47	0x3e1d24e0	0.15346098
48	0x3e0901eb	0.13379638
49	0x3bbd4739	0.0057763127
50	0xbc0bedd3	-0.008540588
51	0xbe4f536c	-0.20246667
52	0xbdb022e9	-0.086004086
53	0xbdd2de0e	-0.1029626
54	0xbdbbb12f	-0.091646545
55	0x3d826872	0.063675776
56	0xbe9e4333	-0.30910644
57	0xbddca838	-0.10774273
58	0x3d7599fe	0.05996131
59	0x3e074b6e	0.13212368
60	0x3dacdb2f	0.084402435
61	0xbe1c1d5e	-0.15245578
62	0x3e154e8d	0.14580746
63	0x3dd229ca	0.10261877
64	0x3d265ad2	0.040613957
65	0x3e80bdcb	0.251448
66	0x3d3c9a14	0.046045378
67	0xbe5b7a97	-0.21433483
68	0xbe3d3806	-0.18478402
69	0xbe7008d3	-0.23440866
70	0x3dcb5615	0.09928528
71	0xbd43e4b4	-0.04782553
72	0xbd1a6706	-0.037695907
73	0x3e030e10	0.12798333
74	0x3d9ae8f8	0.075639665
75	0xbe4637b1	-0.19357182
76	0xbe2e12c4	-0.16999346
77	0xbd0d0b94	-0.03443487
78	0xbe158fcd	-0.14605637
79	0xbea1b38c	-0.31582296
80	0xbe9df3c6	-0.30850047
81	0xbe843aeb	-0.258262
82	0xbd3c458f	-0.045964774
83	0xbe013658	-0.12618387
84	0xbd238add	-0.039927352
85	0xbd9fcabc	-0.078023404
86	0x3d93febd	0.07226322
87	0xbdf7ea7a	-0.1210527
88	0xbe2dc4ee	-0.16969654
89	0xbea6f522	-0.32608896
90	0x3d968316	0.073492214
91	0x3cbfaa7e	0.023396727
92	0xbdbdc8ce	-0.09266816
93	0xbdc1b792	-0.094588414
94	0xbe31eeba	-0.17376223
95	0xbe2fd137	-0.17169653
96	0xbcd381ae	-0.025818672
97	0xbdea8b02	-0.11452295
98	0x3e18d2b3	0.14924125
99	0xbe583bf1	-0.21116616
100	0x3e0abb30	0.13547969
101	0xbdbe32f1	-0.0928706
102	0xbccee0e4	-0.02525372
103	0xbdb21779	-0.08695883
104	0xbd41032c	-0.047122166
105	0x3cc490e9	0.02399488
106	0xbe1baee8	-0.1520344
107	0x3d9bb6a3	0.076031946
108	0xbc2a562f	-0.010396524
109	0xbd8f49a5	-0.069964685
110	0x3dbac4f8	0.091196
111	0x3deb8792	0.11500467
112	0xbd74c2cd	-0.05975609
113	0xbe64e846	-0.2235423
114	0x3db5c6db	0.08875819
115	0xbd9cd96e	-0.07658659
116	0x3e6fb776	0.23409829
117	0xbe2ca559	-0.1685995
118	0xbdab8e53	-0.083767556
119	0x3d06125d	0.032732356
120	0x3cb494e1	0.022043647
121	0x3e4217bb	0.18954365
122	0xbe06ab16	-0.13151202
123	0x3de3f7a9	0.11131222
124	0x3e517d71	0.20458008
125	0x3d669b6c	0.056300566
126	0x3e248483	0.16066174
127	0x3df2f6e7	0.11863499
128	0x3d821bcf	0.0635296
129	0xbd482446	-0.048862718
130	0x3c9034f2	0.017603371
131	0x3e0f8a5a	0.1401762
132	0xbd8e8cdd	-0.06960461
133	0xbe18c99b	-0.14920656
134	0x3e11fc41	0.14256383
135	0x3e663c62	0.22483972
136	0x3cd97af8	0.026547894
137	0xbdaebeba	-0.08532472
138	0xbcc934ea	-0.024561364
139	0x3d8215f8	0.063518465
140	0x3d2624b6	0.040562354
141	0x3ca9f6ae	0.020747509
142	0x3e329b76	0.17442116
143	0x3e1859b7	0.14877973
144	0x3d8b36c5	0.06797556
145	0x3ea90a56	0.33015698
146	0x3e468620	0.19387102
147	0x3df1ab1d	0.118002154
148	0xbca4c09e	-0.020111378
149	0xbe1ab071	-0.1510637
150	0xbe9ff7d8	-0.31243777
151	0xbe87b79c	-0.2650727
152	0xbe277f9b	-0.16357271
153	0xbecb882b	-0.39752325
154	0xbee6ecee	-0.45102638
155	0x3c44c854	0.012010653
156	0xbb99a7d6	-0.004689197
157	0xbe9bf33c	-0.3045901
158	0xbe5e2346	-0.21693143
159	0xbe9f1269	-0.31068733
160	0xbd0fb0b4	-0.035080627
161	0xbdac0900	-0.08400154
162	0xbcdcb319	-0.02694087
163	0xbe1173a3	-0.14204268
164	0xbe57dba7	-0.21079884
165	0xbddc3ada	-0.107534125
166	0xbccd8bc3	-0.025091058
167	0x3db4ac9c	0.08821985
168	0xbcf76936	-0.030201536
169	0xbc7d8ea5	-0.015475904
170	0xbe066ce4	-0.13127476
171	0xbe8d82b3	-0.27638778
172	0xbe751815	-0.23934968
173	0xbd564d26	-0.05231967
174	0xbe43f4b2	-0.19136313
175	0xbc5bcba5	-0.013415252
176	0x3cdea2bd	0.027177209
177	0x3d62f25c	0.055406913
178	0x3b0e2570	0.0021689795
179	0x3dec43ef	0.11536395
180	0xbd2c7a4b	-0.042108815
181	0xbcd510d1	-0.026008995
182	0x3d8b2c39	0.06795544
183	0x3ce5be45	0.02804483
184	0xbe01509c	-0.12628406
185	0x3db12bec	0.086509556
186	0x3d58a03e	0.052887194
187	0x3d539c87	0.051662948
188	0xbe790970	-0.24320006
189	0xbe283393	-0.16425924
190	0xbd7729f8	-0.06034276
191	0xbdc9af73	-0.098479174
192	0x3c53a228	0.012917079
193	0x3e8dbb7f	0.2768211
194	0x3dbb2b7a	0.09139152
195	0x3b77a22a	0.0037785866
196	0xbd93ed96	-0.0722305
197	0xbd7d033e	-0.06177067
198	0xbcacac3c	-0.021078221
199	0x3d80e264	0.062931806
200	0xbe8ba70c	-0.27275884
201	0xbe88634a	-0.26638252
202	0xbde62d07	-0.11239057
203	0x3cf99362	0.030465785
204	0x3d238327	0.03992
205	0xbe70ca7d	-0.23514743
206	0xbde6db94	-0.1127235
207	0xbe9b329c	-0.3031205
208	0xbeca556d	-0.395183
209	0xbdeb859e	-0.11500095
210	0xbeb57774	-0.35442698
211	0xbde30e66	-0.11086731
212	0x3e785d99	0.24254455
213	0x3e4e9f85	0.2017804
214	0xbe48b873	-0.19601612
215	0x3eb94744	0.36187184
216	0x3d5bc538	0.05365488
217	0xbe3bf0b8	-0.18353546
218	0x3c397f52	0.011321859
219	0x3e17f537	0.14839636
220	0xbddd0c3f	-0.107933514
221	0xbd80b402	-0.06284334
222	0x3c03200e	0.008003248
223	0x3e30a4bf	0.17250346
224	0x3c9cde7a	0.019149054
225	0xbe23e3b6	-0.16004834
226	0xbe444a39	-0.19168939
227	0xbf01c570	-0.5069189
228	0xbe9b1c0d	-0.3029484
229	0xbe906ce1	-0.28208068
230	0xbde3de92	-0.11126436
231	0xbe4604c5	-0.19337757
232	0xbd7485a8	-0.059697777
233	0xbc7b8c48	-0.01535327
234	0xbe933a28	-0.28755307
235	0xbd400b81	-0.04688597
236	0x3df7d1b3	0.12100544
237	0xbda3ecc9	-0.080041476
238	0xbdb7ea0d	-0.089801885
239	0xbdd5e6c4	-0.10444406
240	0xbe9d6bd2	-0.30746323
241	0x3cbf901a	0.023384143
242	0xbdf190e1	-0.117952116
243	0xbde9d223	-0.114170335
244	0xbd1ea782	-0.038733967
245	0xbdcb6ff3	-0.09933462
246	0x3ddfd956	0.109301254
247	0xbddaa740	-0.10676432
248	0xbe4185ce	-0.18898699
249	0xbe36e43d	-0.17860503
250	0x3dda5670	0.10661018
251	0x3ddc56b5	0.107587256
252	0xbddfe74d	-0.10932789
253	0xbe5a3145	-0.21307857
254	0x3e772ff9	0.24139394
255	0x3cd2cdc6	0.025732886

fc1.bias f4 [120]
0	0x3e9b646f	0.30350062
1	0xbd8f6268	-0.070011914
2	0xbd82242f	-0.06354558
3	0xbbf31828	-0.007418651
4	0x3d43c9d1	0.04779989
5	0xbdac9f5d	-0.08428834
6	0x3d343e4f	0.044004735
7	0xbe4540ac	-0.19262952
8	0xbc7ee43a	-0.015557343
9	0x3e6ac753	0.22927599
10	0xbe835cc4	-0.25656712
11	0xbd84f033	-0.06491127
12	0xbe362be9	-0.17790188
13	0xbcf8d117	-0.03037314
14	0xbde2f917	-0.11082666
15	0xbd9d36c1	-0.07676459
16	0xbd4120f2	-0.04715056
17	0xbc7aa46e	-0.015297992
18	0xbd8f2d0e	-0.069910154
19	0x3e9ba869	0.30401924
20	0x3d3ab0c7	0.045578744
21	0x3e4d1144	0.20026118
22	0x3e0706b0	0.13186145
23	0x3cbdc4f0	0.023165196
24	0xbc530b86	-0.012881165
25	0xbe9fe211	-0.31227162
26	0xbdf7c743	-0.12098553
27	0xbcc98387	-0.02459885
28	0xbe29c8b2	-0.16580465
29	0xbd4dead6	-0.050272785
30	0x3e06ec9b	0.13176195
31	0xbe584d3d	-0.21123214
32	0x3e369938	0.17831886
33	0x3e512455	0.20424016
34	0x3c8bacaa	0.017050106
35	0x3e8ecaa9	0.27888992
36	0xbb207ed4	-0.0024489658
37	0x3e145307	0.14484797
38	0x3e935261	0.28773788
39	0x3e2e29f6	0.17008194
40	0xbe2d5a7d	-0.1692905
41	0x3d13c764	0.036078826
42	0x3d721046	0.05909755
43	0xbdb6a117	-0.08917444
44	0xbc4e5e05	-0.012595658
45	0x3e9680f4	0.29395258
46	0x3d1c6c76	0.038189374
47	0x3d6d391e	0.0579158
48	0xbe1352e2	-0.14387086
49	0x3e0b7ab6	0.1362103
50	0x3e404ff0	0.18780494
51	0xbe26dc77	-0.16295038
52	0xbdada2a6	-0.08478288
53	0x3da4687a	0.0802774
54	0xbd251dd4	-0.04031165
55	0xbc511a6d	-0.012762648
56	0x3e8f5534	0.27994692
57	0x3d0cba23	0.0343572
58	0xbdceb227	-0.100925736
59	0xbdf15dd4	-0.117854744
60	0xbd85922f	-0.06522023
61	0x3a8d9183	0.0010800812
62	0x3e26ac19	0.16276588
63	0xbda0448a	-0.07825573
64	0x3eaafd4b	0.33396372
65	0xbcbeda34	-0.023297407
66	0x3dad256c	0.08454403
67	0xbcf4483b	-0.029819598
68	0xbd9c1c06	-0.076225325
69	0x3d5a9c50	0.053371727
70	0xbda4a076	-0.08038418
71	0x3a56ef96	0.0008199153
72	0xbdf3c6f5	-0.119031824
73	0xbe4ad7a8	-0.19808829
74	0xbc876762	-0.016528789
75	0x3e38c4d5	0.18043835
76	0x3c5b8c2e	0.013400121
77	0x3e2aeb47	0.16691314
78	0x3c711bda	0.014716113
79	0x3d71029f	0.05884039
80	0xbd94e675	-0.07270519
81	0xbd372110	-0.044709265
82	0xbe8dd28e	-0.27699703
83	0xbd1e9919	-0.038720224
84	0x3db517ad	0.088424064
85	0xbddb78f1	-0.10716427
86	0x3977c940	0.00023630727
87	0x3c751bbc	0.014960226
88	0x3e9b3815	0.30316225
89	0xbd3ee836	-0.046608172
90	0x3e46f445	0.19429119
91	0xbd37cb7c	-0.044871792
92	0x3e9a58f6	0.30145997
93	0xbd232b2c	-0.039836094
94	0x3d3cc4ae	0.046086006
95	0xbe0e3409	-0.13887037
96	0xbd346bb4	-0.044048026
97	0xbe1c35f5	-0.15254958
98	0xbdac2fad	-0.08407531
99	0xbcc48078	-0.02398704
100	0xbd8128d8	-0.063066185
101	0xbdc1df40	-0.0946641
102	0x3e35384d	0.17697258
103	0x3ea680e2	0.32520205
104	0x3df67faf	0.120360725
105	0xbc0f9735	-0.008764078
106	0xbcefa358	-0.029252693
107	0xbc747943	-0.014921489
108	0x3e03c555	0.12868245
109	0xbd0cb503	-0.034352314
110	0xbe177a10	-0.14792657
111	0x3e2767c8	0.16348183
112	0x3d468e4f	0.04847556
113	0x3ee351a5	0.44398227
114	0xb92390e4	-0.00015598867
115	0x3de04b13	0.10951819
116	0xbd5a8ab0	-0.05335492
117	0xbe06677b	-0.13125412
118	0xbd512b02	-0.051066406
119	0x3d840a3a	0.06447263

fc2.weight f4 [84, 120]
0	0xbe64cae0	-0.22343016
1	0x3e0d79d6	0.13816008
2	0x3c20cdf2	0.009814726
3	0xbe7eb908	-0.24875271
4	0xbde74365	-0.11292151
5	0xbc71100b	-0.014713298
6	0x3c884e0f	0.016638784
7	0xbdd7407e	-0.10510348
8	0x3c0f8fb8	0.008762293
9	0x3daa8e28	0.083278954
10	0x3ca78a5b	0.020451715
11	0x3de91c27	0.11382323
12	0xbe0af3ec	-0.13569611
13	0xbdaba1b8	-0.08380455
14	0x3e8140e6	0.25244826
15	0xbc2c4cf9	-0.010516399
16	0x3d7f91fb	0.062395077
17	0x3e85f97f	0.26166913
18	0xbd23dd7e	-0.040006153
19	0x3e0abcee	0.13548633
20	0xbe1199e1	-0.14218856
21	0x3b0e9205	0.0021754515
22	0xbd7531c2	-0.059861906
23	0xbe5c940f	-0.21540855
24	0xbd08f589	-0.033437286
25	0xbe270da6	-0.163138
26	0x3ca43ff9	0.020050036
27	0xbd209f78	-0.03921458
28	0x3e1e49c7	0.15457831
29	0xbe85dad8	-0.26143527
30	0xbc8a85db	-0.01690953
31	0xbe60b5aa	-0.219443
32	0xbefe269f	-0.4963884
33	0xbe261000	-0.16217041
34	0x3dcb3b8b	0.09923466
35	0x3dc4c5ed	0.09608064
36	0x3d9f7de6	0.07787685
37	0xbcb5d485	-0.022196064
38	0x3dc49c58	0.09600133
39	0xbe5eb1d6	-0.21747527
40	0xbe709093	-0.2349265
41	0xbd25f645	-0.040518064
42	0xbd3fc5fa	-0.046819665
43	0xbcf3c417	-0.029756589
44	0xbe1179fe	-0.14206693
45	0x3c2c418e	0.010513676
46	0x3d87ce80	0.066311836
47	0x3de9494f	0.11390936
48	0xba43fc78	-0.00074762804
49	0xbd503345	-0.050830144
50	0x3e7c0cb7	0.24614225
51	0x3d3a058e	0.045415454
52	0x3da47262	0.08029629
53	0x3dae700d	0.08517466
54	0x3e6c93e2	0.23103288
55	0xbb5076c8	-0.003180908
56	0x3d26760f	0.040639933
57	0x3e245f6c	0.16052026
58	0x3eb51e35	0.3537461
59	0xbdf17e9d	-0.11791728
60	0xbe766917	-0.24063526
61	0x3d5346fc	0.051581368
62	0x3dc07ff6	0.093994066
63	0x3c009b05	0.00784946
64	0x3e6a208d	0.2286398
65	0x3e1ed7e6	0.15512046
66	0x3e0eb860	0.13937521
67	0x3d18b995	0.03728636
68	0x3d6476e7	0.055777457
69	0x3dd670e9	0.10470755
70	0xbd821c28	-0.06353027
71	0x3ea08f99	0.31359556
72	0x3e358f4e	0.17730448
73	0x3e937aaa	0.28804523
74	0x3c73ec02	0.014887812
75	0x3e45f097	0.19330059
76	0x3c3b341b	0.011425997
77	0xbe3295d8	-0.17439973
78	0xbe23c1da	-0.15991917
79	0xbde97559	-0.113993354
80	0xbd84e155	-0.06488291
81	0x3d2159ac	0.03939216
82	0xbd7d5816	-0.061851583
83	0x3d32a1fa	0.043611504
84	0x3eb7b5db	0.35880932
85	0xbe9fec5c	-0.31235015
86	0x3d129ebf	0.035795923
87	0x3d274c4b	0.040844243
88	0xbe658a1b	-0.22415964
89	0xbd949e5c	-0.07256767
90	0x3df68028	0.120361626
91	0xbdb1dc66	-0.08684616
92	0x3e3f1457	0.18660103
93	0x3d4b98ff	0.049706455
94	0xbd841b8d	-0.064505674
95	0x3ca27cab	0.019834837
96	0x3eb6f392	0.35732704
97	0x3e4cff30	0.20019221
98	0x3d4f04e3	0.05054177
99	0xbda684e7	-0.08130818
100	0x3dbe5467	0.09293442
101	0x3db35e1e	0.08758186
102	0xbc765ee0	-0.015037268
103	0x3d3cc048	0.04608181
104	0xbd22fd35	-0.03979226
105	0x3b531298	0.0032207128
106	0xbccd2e4c	-0.02504649
107	0x3e7b0ee5	0.245174
108	0xbdad7cf0	-0.084710956
109	0x3dbe0451	0.09278167
110	0xbda051de	-0.07828115
111	0x3e05fa0d	0.13083668
112	0x3ea23cac	0.31686914
113	0xbdb5d84d	-0.08879147
114	0xbe211c56	-0.15733466
115	0xbc570c4d	-0.013125491
116	0x3cf288bc	0.029606216
117	0x3dab9ddf	0.08379721
118	0x3d89b67b	0.067242585
119	0x3e09de9f	0.1346383
120	0x3dd1b5f3	0.10239782
121	0xbdf49509	-0.11942489
122	0x3c9bd4d1	0.019022377
123	0xbd9a64bc	-0.07538745
124	0x3d992ed0	0.07479632
125	0xbe9b597f	-0.30341718
126	0x3e4f4dc7	0.20244513
127	0x3d55fa65	0.052240748
128	0x3d6e1d72	0.05813355
129	0x3d47b75a	0.048758842
130	0x3e090dd0	0.13384175
131	0x3d855837	0.06510966
132	0xbca12661	-0.01967162
133	0x3e9625ca	0.29325706
134	0x3e747c87	0.23875628
135	0x3e172f2a	0.14764085
136	0x3d47a8be	0.04874491
137	0x3d838655	0.06422106
138	0x3d97d9f9	0.07414622
139	0x3d9fa179	0.0779447
140	0xbd8bc35b	-0.068243705
141	0xbd5f7b10	-0.05456072
142	0x3dac9314	0.084264904
143	0xbd61df5e	-0.05514466
144	0x3e177e7b	0.14794342
145	0x3d9e5ed9	0.077329345
146	0xbdf1784b	-0.11790522
147	0xbdcc05de	-0.099620566
148	0xbb6acc8b	-0.0035827484
149	0x3e18099e	0.14847419
150	0x3e14144d	0.14460869
151	0xbe98a49c	-0.29813087
152	0x3d38f077	0.0451512
153	0xbe8c441c	-0.27395713
154	0x3dc5d6c7	0.09660106
155	0xbd3bb519	-0.045827005
156	0xbc9a618d	-0.018845344
157	0xbc44f69c	-0.012021687
158	0x3dd3ba8e	0.10338317
159	0xbcd407ba	-0.02588259
160	0xbe68ee5c	-0.22747177
161	0x3d989203	0.074497245
162	0x3d21545b	0.03938709
163	0xbe7ad0ae	-0.24493667
164	0x3e181506	0.1485177
165	0x3e2b8a2b	0.16751926
166	0xbe39f4fb	-0.18159859
167	0xbd0a2862	-0.03372992
168	0xbe6aef08	-0.22942746
169	0xbe0f834d	-0.14014931
170	0x3d5e6455	0.054294903
171	0xbe348480	-0.1762867
172	0xbdb6e2b2	-0.089299574
173	0x3be840cb	0.007087802
174	0xbde2e45d	-0.11078713
175	0xbd06e9f7	-0.03293797
176	0x3e83c02c	0.25732553
177	0x3d32d8ff	0.043663975
178	0xbd7a59d6	-0.06112083
179	0x3a1c5bb5	0.0005964593
180	0x3d95d9c6	0.073169276
181	0xbd7fa3be	-0.062412016
182	0xbc8c1ed2	-0.01710454
183	0x3dc760a4	0.097352296
184	0x3e509996	0.20371088
185	0xbe282872	-0.16421679
186	0xbd1b0cfb	-0.037854176
187	0x3ca0b497	0.019617362
188	0x3bdb4a48	0.0066922046
189	0xbd6a1ecd	-0.05715828
190	0x3d9c2c9f	0.07625698
191	0xbde180aa	-0.11010869
192	0x3bbeea4a	0.0058262693
193	0xbd3d4cb8	-0.046215743
194	0xbd467b10	-0.048457205
195	0xbca74b57	-0.020421667
196	0xbea88614	-0.32914793
197	0x3df5ddd2	0.120051995
198	0xbcbb9309	-0.02289726
199	0x3d9b95e3	0.07596948
200	0x3d1d68c1	0.03842998
201	0x3cf7cc2b	0.030248722
202	0x3e1ee7f9	0.15518178
203	0xbda63764	-0.08116034
204	0xbd9d6493	-0.07685199
205	0xbe0974e5	-0.13423498
206	0x3d64c917	0.055855837
207	0xbd7115ab	-0.058858555
208	0x3e60bfea	0.2194821
209	0xbce74557	-0.028231306
210	0x3d89c386	0.06726746
211	0xbd76b315	-0.06022938
212	0x3d5c4bbd	0.053783167
213	0x3dc51e86	0.096249625
214	0xbe59261a	-0.21205941
215	0x3ce41b3c	0.027845018
216	0x3e16d483	0.14729504
217	0x3e422b1e	0.1896176
218	0x3de88085	0.11352638
219	0xbbaff2c0	-0.005369514
220	0x3d94668d	0.072461225
221	0xbb3849e3	-0.0028120212
222	0xbcaca2da	-0.021073747
223	0x3d9ece5d	0.077542044
224	0x3ce501ac	0.027954899
225	0x3a8f1f14	0.0010919296
226	0xbc6f1ab6	-0.014593771
227	0x3dc04bb7	0.093894415
228	0x3e6bdc1a	0.23033181
229	0xbdbb417a	-0.09143348
230	0xbdf91f64	-0.121641904
231	0xbe9c2273	-0.30495033
232	0x3d53a245	0.051668424
233	0x3e9b2b00	0.30306244
234	0x3c2beb43	0.0104931025
235	0xbd3a48ee	-0.045479707
236	0x3df0bfd4	0.11755338
237	0x3e5486c4	0.20754534
238	0xbeaa1954	-0.3322245
239	0xbe4b7516	-0.19868883
240	0x3e45703d	0.19281097
241	0x3dd0d07e	0.10196017
242	0x3eb15ed1	0.34642652
243	0x3c92f67c	0.017939799
244	0xbca7689d	-0.020435626
245	0xb9a68f5c	-0.00031768798
246	0xbe076113	-0.13220625
247	0xbbd3d2a9	-0.0064643216
248	0xbc989b20	-0.018628657
249	0x3e490542	0.19630912
250	0xbcca0f3a	-0.024665464
251	0x3dc5d6c9	0.09660108
252	0x3e4cd41f	0.20002793
253	0x3e0f2060	0.13977194
254	0xbdbdfa35	-0.09276239
255	0x3e48b631	0.1960075

fc2.bias f4 [84]
0	0x3e3e94b9	0.1861142
1	0x3ec77da6	0.3896305
2	0x3d88626d	0.06659398
3	0xbdf9a719	-0.121900745
4	0x3d964635	0.0733761
5	0x3d8bbe17	0.06823366
6	0x3b1326aa	0.0022453465
7	0x3e3b3210	0.18280816
8	0x3d9d2d3f	0.07674646
9	0xbe0d856b	-0.13820426
10	0xbd13ec3d	-0.036113966
11	0x3e314b29	0.17313828
12	0x3e3be16a	0.18347707
13	0xbddc7b96	-0.1076576
14	0xbcc3a91f	-0.023884354
15	0xbd780700	-0.06055355
16	0x3de039b5	0.10948507
17	0x3e06b231	0.13153912
18	0x3d838b69	0.06423075
19	0x3ec98528	0.39359403
20	0xba4d3f6a	-0.0007829579
21	0x3e98cd6e	0.2984423
22	0x3eaa5c35	0.33273473
23	0x3eeb05e8	0.45902944
24	0xbd8803e4	-0.06641367
25	0x3d3421e0	0.04397762
26	0x3e1f6e41	0.15569402
27	0xbe2bde55	-0.16784032
28	0x3f1bdcfd	0.60884076
29	0xbd87b114	-0.06625572
30	0x3e8e6494	0.2781111
31	0xbde7129a	-0.11282845
32	0xbe30f1ea	-0.17279783
33	0x3d53fb3b	0.051753264
34	0xbe1f3f39	-0.15551461
35	0xbdf06160	-0.11737323
36	0xbdc9d85c	-0.098557204
37	0x3d905bf2	0.07048787
38	0xbdf77737	-0.12083285
39	0x3e535db6	0.20641217
40	0x3eaf4959	0.34235647
41	0x3d999918	0.074999034
42	0x3e8d8d5a	0.27646905
43	0x3e503f95	0.20336755
44	0xbd9f0c88	-0.07766062
45	0xbdecfa2f	-0.11571156
46	0x3ecbf877	0.39838
47	0xbdd3f885	-0.10350136
48	0x3e6a8177	0.2290095
49	0x3d6f1526	0.058369778
50	0x3da0a766	0.07844429
51	0x3d7c4d97	0.061597433
52	0xbd7bb331	-0.061450187
53	0x3e84771f	0.25872132
54	0xbb6c9743	-0.0036100901
55	0x3e01480d	0.12625141
56	0xbde6ecbb	-0.112756215
57	0xbe222bac	-0.15836972
58	0xbe29bf5e	-0.16576907
59	0xbe47c27d	-0.19507785
60	0xbe181ba7	-0.14854299
61	0xbe10c0b3	-0.14136009
62	0xbe263065	-0.16229399
63	0xbd9e8606	-0.07740407
64	0xbbe83f7d	-0.0070876465
65	0x3d76eefe	0.060286514
66	0xbe121ff2	-0.14269999
67	0x3e96ac25	0.2942821
68	0x3c9ff895	0.019527713
69	0xbe4e5e64	-0.20153195
70	0xbd91e84e	-0.07124387
71	0xbd74cd8c	-0.059766337
72	0x3e75ae28	0.23992217
73	0x3e7a47f2	0.24441507
74	0xbc5367ea	-0.012903193
75	0x3dcaa921	0.0989554
76	0x3db25845	0.08708242
77	0xbd935daa	-0.071955994
78	0x3ea188fd	0.31549826
79	0x3ef3088e	0.47467464
80	0x3de05b7f	0.109549515
81	0x3f233650	0.6375475
82	0xbdc37943	-0.09544613
83	0xbd959ab3	-0.07304897

fc3.weight f4 [10, 84]
0	0xbbb287d5	-0.0054483213
1	0xbeecf685	-0.4628183
2	0x3e07a75f	0.13247441
3	0xbe784bd7	-0.2424768
4	0x3c4ac7fc	0.012376782
5	0xbd9342b3	-0.07190456
6	0xbe970cda	-0.29501992
7	0xbe9424cf	-0.28934333
8	0x3dda4936	0.10658495
9	0xbddfbd3a	-0.10924764
10	0xbd427185	-0.047471542
11	0x3d88767d	0.06663225
12	0xbea83046	-0.3284933
13	0x3bb595b4	0.0055415276
14	0x3d839ba3	0.0642617
15	0x3e111d84	0.14171416
16	0x3d1f0714	0.03882511
17	0x3c238322	0.009979995
18	0x3dd53239	0.1040997
19	0xbee56b2b	-0.44808325
20	0x3bff5c60	0.0077929944
21	0xbe7fa5c7	-0.24965583
22	0x3ddd0ff9	0.10794062
23	0xbeb79afb	-0.35860428
24	0x3ce07265	0.027398298
25	0xbe93ee03	-0.28892526
26	0xbe2f29a3	-0.17105727
27	0xbe412097	-0.18860088
28	0xbec04e5e	-0.3755979
29	0x3d3f051b	0.04663573
30	0x3e2ac04e	0.16674921
31	0x3ca3331e	0.019921836
32	0x3dce5586	0.10074906
33	0xbe05d35a	-0.13068905
34	0xbcf9b642	-0.030482415
35	0x3df93719	0.12168712
36	0xbe41bf1f	-0.18920563
37	0x3d6d0a48	0.057871133
38	0x3e538ec2	0.20659927
39	0xbcb9c8dc	-0.022678785
40	0xbe30df53	-0.17272691
41	0x3d5ee2bc	0.05441545
42	0xbe8b554c	-0.27213514
43	0x3defbfea	0.117065266
44	0xbe479ef6	-0.19494233
45	0xbdd0e2d8	-0.10199517
46	0x3d1c790b	0.038201373
47	0xbd992bb3	-0.07479038
48	0xbe3cadac	-0.18425626
49	0x3d768073	0.060181092
50	0x3e1c4ed1	0.15264441
51	0xbe4bd2e8	-0.19904673
52	0xbea85ee4	-0.32884896
53	0x3e1bac30	0.15202403
54	0x3cbad0c7	0.02280463
55	0x3d65ca9b	0.056101423
56	0xbe54ca09	-0.20780195
57	0xbe6779dc	-0.2260508
58	0x3e1fb3bd	0.15595908
59	0xbe541b66	-0.20713577
60	0xbeb2cb70	-0.34920835
61	0xbe828e28	-0.25499082
62	0x3ccab009	0.024742143
63	0xbd8be220	-0.06830239
64	0xbe41838a	-0.18897834
65	0xbe205404	-0.1565705
66	0x3d50fbd7	0.051021423
67	0xbec8ce40	-0.39219856
68	0xbe361702	-0.17782214
69	0xbe5ff044	-0.21868998
70	0x3d629533	0.05531807
71	0x3db5bd04	0.088739425
72	0x3dd9e06a	0.10638507
73	0x3d9b43cd	0.07581291
74	0x3cad7dd4	0.021178164
75	0xbcee0783	-0.029056316
76	0x3e183b9b	0.14866488
77	0x3de04888	0.10951334
78	0xbe944351	-0.28957608
79	0x3d07650e	0.033055358
80	0xbe951431	-0.29116967
81	0xbbf4a7d1	-0.0074662943
82	0x3d40c5d1	0.047063652
83	0xbea4c29a	-0.3217972
84	0xbef6f707	-0.48235342
85	0xbe949e43	-0.29026994
86	0xbdf04e5e	-0.11733697
87	0xbe658f31	-0.22417904
88	0xbe749139	-0.23883523
89	0xbcde3987	-0.02712704
90	0xbe60da3b	-0.21958248
91	0xbead4410	-0.3384099
92	0xbeb1f91c	-0.34760368
93	0xbd89715a	-0.06711073
94	0x3e1c63b2	0.15272406
95	0xbde94e49	-0.11391885
96	0xbdd5fe42	-0.104488865
97	0x3c38c886	0.011278277
98	0xbc9efd4f	-0.019407896
99	0xbd18eecf	-0.03733712
100	0x3dfe4b7f	0.124167435
101	0xbec31929	-0.38105133
102	0xbe14eee4	-0.14544255
103	0xbe8a163e	-0.26970094
104	0x3cb003ad	0.021486128
105	0x3debee58	0.1152007
106	0xbe01e171	-0.12683655
107	0x3cc3443f	0.023836253
108	0xbd5a4c54	-0.05329545
109	0x3df982b8	0.12183136
110	0xbe7d0ecf	-0.2471268
111	0xbe19ca28	-0.15018523
112	0xbe7d9381	-0.247633
113	0x3e6ab720	0.22921419
114	0xbe13cf87	-0.14434634
115	0x3d0f7ffb	0.03503416
116	0xbd9fe3aa	-0.07807095
117	0xbe884df5	-0.26621976
118	0xbe03f4cd	-0.12886353
119	0xbdc9bbc3	-0.09850266
120	0x3e0dcc27	0.13847409
121	0xbe884c8a	-0.26620895
122	0x3e2f6a52	0.17130402
123	0xbee86e91	-0.45396855
124	0xbdd9eaf1	-0.10640515
125	0xbe926140	-0.2858982
126	0xbe0fc0fd	-0.14038463
127	0x3e1be8be	0.15225503
128	0x3d65285f	0.055946704
129	0xbdeac3d9	-0.11463136
130	0xbe911694	-0.28337538
131	0xbe1573f2	-0.14595011
132	0xbe5d259f	-0.21596383
133	0x3e147059	0.14495982
134	0x3e350615	0.17678101
135	0xbe5622cc	-0.20911711
136	0xbdb3f4cd	-0.087869264
137	0xbde44ead	-0.11147819
138	0xbc170724	-0.009218011
139	0xbe4e6705	-0.20156486
140	0xbe977fca	-0.29589683
141	0xbe5ec368	-0.21754229
142	0xbea2651a	-0.3171776
143	0x3e95f673	0.29289588
144	0x3dcdf79a	0.10056992
145	0xbd334e44	-0.04377581
146	0x3da85051	0.08218444
147	0xbdba9644	-0.09110692
148	0xbdec2619	-0.11530704
149	0x3dcefbe3	0.10106637
150	0xbd693532	-0.056935497
151	0x3dc6d641	0.097088344
152	0xbe478027	-0.1948248
153	0xbcc843a9	-0.024446325
154	0x3e00044d	0.1250164
155	0xbe662335	-0.22474368
156	0xbedd46cf	-0.43218085
157	0xbe12f344	-0.14350611
158	0x3d9b7855	0.07591311
159	0x3e00dca3	0.12584166
160	0xbde52318	-0.11188334
161	0x3d394cbe	0.045239203
162	0x3e03f013	0.1288455
163	0x3caa0e9c	0.02075892
164	0xbde48954	-0.11159006
165	0xbe94d7e9	-0.29070976
166	0x3e023ea0	0.12719202
167	0x3d486077	0.04892012
168	0xbe30ebb9	-0.17277421
169	0x3d12fdda	0.035886623
170	0x3c91b180	0.017784834
171	0xbe9985eb	-0.29984984
172	0x3df9d4f1	0.121988185
173	0x3eae95e4	0.34098732
174	0xbe9ba2fe	-0.3039779
175	0xbed6d0b8	-0.41956115
176	0xbda33449	-0.07968957
177	0xbd49b8b8	-0.049248427
178	0xbe751266	-0.239328
179	0xbf0a14bc	-0.5393789
180	0xbe10681a	-0.14102212
181	0x3dcf71d3	0.10129132
182	0xbedd3bb5	-0.43209615
183	0xbea41125	-0.3204433
184	0xbdaf9777	-0.085738115
185	0x3db21d35	0.08696977
186	0xbd8996f1	-0.06718243
187	0xbcda373e	-0.02663767
188	0xbea250e0	-0.31702328
189	0xbcc71d6b	-0.02430602
190	0xbe84c377	-0.25930378
191	0xbace6064	-0.0015745279
192	0xbe4ae0f9	-0.19812383
193	0xbdf132d2	-0.11777271
194	0xbeb08968	-0.34479833
195	0x3b379aa4	0.0028015757
196	0x3dad0430	0.08448064
197	0x3dbca6ce	0.09211503
198	0x3e0ffcb1	0.14061238
199	0xbeb156f2	-0.34636647
200	0xbe850c19	-0.25985792
201	0x3df002c8	0.117192805
202	0x3e2f63da	0.17127934
203	0x3e59ca0a	0.21268478
204	0xbce98f5e	-0.028510746
205	0x3e852546	0.26005
206	0xbe7c2112	-0.2462199
207	0xbcb918f9	-0.022594916
208	0xbe3c8009	-0.18408217
209	0x3e2888b0	0.16458392
210	0x3e26b03c	0.16278166
211	0xbe6e1710	-0.23250985
212	0xbe1fcd34	-0.15605623
213	0xbba367dd	-0.0049867467
214	0x3de155da	0.11002703
215	0xbd934b9b	-0.07192155
216	0x3e4bcd51	0.1990254
217	0xbcfe7639	-0.031062232
218	0x3be9de75	0.0071371146
219	0xbdee489b	-0.11634942
220	0x3e26ce31	0.16289593
221	0xbc39820b	-0.011322509
222	0xbe80dbfd	-0.25167838
223	0xbe5317ad	-0.206145
224	0xbdf4b996	-0.1194946
225	0xbe0abb60	-0.1354804
226	0x3dec3ebb	0.115354024
227	0xbe600077	-0.21875177
228	0xbd07a24b	-0.03311376
229	0xbe908326	-0.28225058
230	0xbd67e95f	-0.056619044
231	0xbe0f9473	-0.14021473
232	0xbe6a8091	-0.22900607
233	0xbeb622b8	-0.35573363
234	0xbce474e0	-0.027887762
235	0x3dddf233	0.108372115
236	0xbe37f355	-0.17963918
237	0x3dc8b7d8	0.098006904
238	0xbec04183	-0.3754998
239	0x3e159988	0.14609349
240	0x3cd93886	0.02651621
241	0xbb52bd7a	-0.0032156394
242	0x3c387d97	0.011260412
243	0xbe4d8623	-0.200707
244	0x3d566ef9	0.052351926
245	0xbedb8dcb	-0.42881617
246	0x3daaeb7f	0.083456986
247	0x3dfdbdda	0.12389727
248	0xbe68b720	-0.22726107
249	0x3e0df99e	0.13864753
250	0xbea75226	-0.32679862
251	0xbe164399	-0.14674224
252	0x3e38b0fb	0.18036263
253	0x3dacc3e8	0.08435804
254	0x3d86a930	0.06575239
255	0xbd430b8d	-0.047618438

fc3.bias f4 [10]
0	0xbe40140f	-0.18757652
1	0xbe4564ca	-0.19276729
2	0x3c898737	0.016788108
3	0xb9609b98	-0.00021420268
4	0x3e66b560	0.22530127
5	0xbd388839	-0.045051787
6	0x3e50eb07	0.20402156
7	0xbddf15e8	-0.1089285
8	0x3e83208f	0.25610778
9	0xbe1e3231	-0.15448834
